…
vocab_filename : ../embeddings/vocab.txt
pretrained_char_emb_filename : ../embeddings/weights.txt
param_stored_fileholder : saved_model
char_alphabet_size : 5789
label_size : 3
norm_char_emb : False
norm_gaz_emb : True
number_normalized : True
max_sentence_length : 250
batch_size : 150
max_epoch : 10
lr : 1e-05
lr_decay : 0.001
optimizer : Adam
l2_penalty : 5e-08
log_path : log
mode : train
shuffle : True
use_gpu : True
use_weights : True
visible_gpu : 0
random_seed : 1
print_iter : 20
evaluate_train : 5
cuda:0
Bert_Gat(
  (bert): BertModel(
    (embeddings): BertEmbeddings(
      (word_embeddings): Embedding(21128, 768, padding_idx=0)
      (position_embeddings): Embedding(512, 768)
      (token_type_embeddings): Embedding(2, 768)
      (LayerNorm): LayerNorm((768,), eps=1e-12, elementwise_affine=True)
      (dropout): Dropout(p=0.1, inplace=False)
    )
    (encoder): BertEncoder(
      (layer): ModuleList(
        (0-11): 12 x BertLayer(
          (attention): BertAttention(
            (self): BertSdpaSelfAttention(
              (query): Linear(in_features=768, out_features=768, bias=True)
              (key): Linear(in_features=768, out_features=768, bias=True)
              (value): Linear(in_features=768, out_features=768, bias=True)
              (dropout): Dropout(p=0.1, inplace=False)
            )
            (output): BertSelfOutput(
              (dense): Linear(in_features=768, out_features=768, bias=True)
              (LayerNorm): LayerNorm((768,), eps=1e-12, elementwise_affine=True)
              (dropout): Dropout(p=0.1, inplace=False)
            )
          )
          (intermediate): BertIntermediate(
            (dense): Linear(in_features=768, out_features=3072, bias=True)
            (intermediate_act_fn): GELUActivation()
          )
          (output): BertOutput(
            (dense): Linear(in_features=3072, out_features=768, bias=True)
            (LayerNorm): LayerNorm((768,), eps=1e-12, elementwise_affine=True)
            (dropout): Dropout(p=0.1, inplace=False)
          )
        )
      )
    )
    (pooler): BertPooler(
      (dense): Linear(in_features=768, out_features=768, bias=True)
      (activation): Tanh()
    )
  )
  (UserInfo): UserInfoEmbedding(
    (gender_embedding_module): SparseEmbedding(
      (char_embedding_layer): Embedding(3, 50)
      (dense): Linear(in_features=50, out_features=32, bias=True)
    )
    (focus_num_embedding_module): SparseEmbedding(
      (char_embedding_layer): Embedding(10, 50)
      (dense): Linear(in_features=50, out_features=32, bias=True)
    )
    (fans_num_embedding_module): SparseEmbedding(
      (char_embedding_layer): Embedding(14, 50)
      (dense): Linear(in_features=50, out_features=32, bias=True)
    )
    (blogs_num_embedding_module): SparseEmbedding(
      (char_embedding_layer): Embedding(14, 50)
      (dense): Linear(in_features=50, out_features=32, bias=True)
    )
    (verify_embedding_module): SparseEmbedding(
      (char_embedding_layer): Embedding(3, 50)
      (dense): Linear(in_features=50, out_features=32, bias=True)
    )
    (vip_embedding_module): SparseEmbedding(
      (char_embedding_layer): Embedding(8, 50)
      (dense): Linear(in_features=50, out_features=32, bias=True)
    )
    (edu_embedding_module): SparseEmbedding(
      (char_embedding_layer): Embedding(7, 50)
      (dense): Linear(in_features=50, out_features=32, bias=True)
    )
    (place_embedding_module): SparseEmbedding(
      (char_embedding_layer): Embedding(37, 50)
      (dense): Linear(in_features=50, out_features=32, bias=True)
    )
    (text_embedding_module): TextEmbedding(
      (char_embedding_layer): Embedding(5789, 50)
      (lstm): LSTM(50, 16, num_layers=2, batch_first=True, bidirectional=True)
    )
    (dropout): Dropout(p=0.3, inplace=False)
    (final_dense): Linear(in_features=32, out_features=32, bias=True)
  )
  (GAT): GAT(
    (out_att): GraphAttentionLayer (1024 -> 256)
    (attention_0): GraphAttentionLayer (800 -> 256)
    (attention_1): GraphAttentionLayer (800 -> 256)
    (attention_2): GraphAttentionLayer (800 -> 256)
    (attention_3): GraphAttentionLayer (800 -> 256)
  )
  (Dropout): Dropout(p=0.3, inplace=False)
  (output_linear): Linear(in_features=1056, out_features=3, bias=True)
)
data_process train
  0%|                                                                                                                                              | 0/461 [00:00<?, ?it/s]  0%|▎                                                                                                                                     | 1/461 [00:00<02:01,  3.79it/s]100%|██████████████████████████████████████████████████████████████████████████████████████████████████████████████████████████████████| 461/461 [00:00<00:00, 1701.56it/s]start: ../dataset/data_bak/1.5-s125/train/222-4607367113870220-00063-00009.xlsx
…
